program/model.pt (torch, 32672 bytes, 13 tensors)

weight f4 [10, 1, 2, 5]
00000000: 955a 41be 5065 82be 3334 94be cfe5 703e
00000010: 464a 103f e995 52be 3cd0 0d3e 9a0c c5be
00000020: ef4c f63e d7be 683d f0ca a93d a084 86bc
00000030: ea2b d8be 2588 9cbe 1df1 f2be a49a 09be
00000040: d042 163e 9bef debe a67e 3fbe 75a6 c13d
00000050: cc2e a3be 3bdb 1e3f b874 c93e 0517 15bf
00000060: 35fc 4dbe a1ea 3c3d f099 bb3e 9181 293e
00000070: 586e 8b3e 0702 0abf a1ab 243f 7fe3 923e
00000080: ce5d ccbd e07b 0abf b28f b7be 5c14 783e
00000090: 3dcb e1be 08d1 053f 89eb f9be cf1c 60be
000000a0: ea97 163f b34c c13e 94da 893e 8e24 fb3e
000000b0: 1396 edbd 0104 fe3e ac28 cabe 15c7 3a3e
000000c0: 2925 083f 9ee5 e93e 2b17 47bf aeaf 0fbf
000000d0: 84b5 c8be 41d5 bc3d ee8b 323d 5943 063d
000000e0: a747 943e 608b e0be a48a 3f3e d681 073f
000000f0: 0561 32bf 278e 0b3e 7467 8fbe b56d 0b3e
00000100: 4e17 08bf f16c 1dbf 7588 2a3f b4f7 21bf
00000110: 6337 d43e e02d e7bd a9e1 96be 943f 63bc
00000120: 530c b43d d0c3 ddbe 1c28 003f 93cc ac3e
00000130: 9f55 293f fb28 97be f279 233e 90cc 22be
00000140: 56be 16bd 5a37 88be 8ac1 04bf a250 c03e
00000150: f998 cf3d 2b82 eb3e ed23 c43e 818e f23e
00000160: 1e6a 873e 6170 86be 7875 883e 4815 7abe
00000170: 8956 433e 06d0 603b 2b19 7f3e 0bc7 35be
00000180: f446 edbe e703 873e 153c 023f 876c a83d
-0.1888221 -0.2546792 -0.28946075 0.23525165 0.5636333 -0.20564999 0.13848966 -0.38486177
0.4810557 0.056822624 0.082906604 -0.016420662 -0.42221004 -0.3057262 -0.4744958 -0.13437897
0.14673924 -0.4354218 -0.18700656 0.09455577 -0.3187164 0.6205327 0.39346862 -0.5823825
-0.2011574 0.046122197 0.36640882 0.16553332 0.27232623 -0.53909343 0.64324385 0.2868919
-0.09978829 -0.5409527 -0.35851818 0.24226516 -0.4410037 0.5227208 -0.48812512 -0.2188599
0.5882555 0.3775383 0.26924574 0.49051327 -0.1160089 0.4961243 -0.39484155 0.18240006
0.531817 0.45682997 -0.77769727 -0.5612744 -0.39200985 0.092203625 0.04359048 0.03277907
0.28960916 -0.43856335 0.18705231 0.5293249 -0.6967929 0.13628446 -0.28008616 0.13616069
-0.5316056 -0.61494356 0.66614467 -0.6326859 0.41448507 -0.11288047 -0.2946904 -0.013870139
0.08791413 -0.43313456 0.500612 0.33749828 0.6614627 -0.29523453 0.15964487 -0.15898347
-0.036802612 -0.2660473 -0.5185782 0.37561518 0.10136599 0.45997748 0.3830866 0.47374347
0.26448148 -0.26257613 0.26652122 -0.2442218 0.1907598 0.003430368 0.24911945 -0.1775171
-0.46343195 0.26370165 0.5087293 0.08223825

bias f4 [10]
00000000: 35f5 413e 1280 f73c dc5b 2dbe 85fd 073e
00000010: 000e b3bb 0914 133e 406d 7dbe 9d97 783d
00000020: b234 823e 47a5 10be
0.18941195 0.030212436 -0.16929573 0.13280304 -0.0054643154 0.14363112 -0.24748707 0.060691465
0.25430828 -0.14125548

weight f4 [10, 1, 3, 5]
00000000: 5cdb 3abf 2852 d4be 1c60 7f38 6f95 cabc
00000010: 774f 8d3c 1d62 a8be 3f47 8ebe f208 2a3f
00000020: c865 243e b0f0 083e 64ca 1c3f 46de d83b
00000030: 9427 fcbe a212 d5be 28e7 bd3e 172c 083e
00000040: 3a0d 3b3d 8bd3 d43e 23cc 793e 8368 2dbf
00000050: 6e64 cd3e de0b 15be cb74 163f 3359 ffbd
00000060: ad1e 533e 2d6e a1bd d64b 243e 6f8c f43e
00000070: 81e9 963e db66 e23e 89c9 edbe 88df 3fbd
00000080: 8381 aa3e 81cb 2ebe 243b 90be 2ca2 e8be
00000090: 154f 2c3e adb7 53bf 07aa a63e 4c9f 8ebd
000000a0: 81bf 823e 3199 473e de59 1e3e 5f29 993e
000000b0: fad4 adbe d78e ab3b 03b8 ebbd 80e6 b63e
000000c0: feb9 4fbe 1a36 3e3e 4969 013f 3eda 2fbe
000000d0: ba33 a5be 1b8b 7abe af73 943e dc02 f4be
000000e0: 872b e5bd 7ba6 823e 47aa 5ebe cd2d 353e
000000f0: dcb1 4c3e c01b d53b 0f54 2c3e 5764 793e
00000100: 9e7a 2c3e e39a cbbe f3d8 8cbe 8411 ddbe
00000110: 3277 943e da09 56be 4c00 97bd 2cd9 01bd
00000120: bfe8 8e3c 8ee3 2e3e 684e 013f a474 363e
00000130: 963d 9bbd e517 ff3e fdc8 053f c182 f83e
00000140: c339 0e3e 6ae4 99be dadd 88be 4c35 c2bd
00000150: 9225 aebe 80a9 33bd d9ad dd3e 4160 ea3e
00000160: 870c a1be e0da 02bf 9ab6 f6be f3cc 653d
00000170: 92a4 03be caca 9e3e 6b45 04bf 4356 9c3e
00000180: 155d 5cbd 928a 6a3f 5a3e 7abe 8eaa 7bbe
00000190: 9f27 013f 8226 60bd 9c7e fc3e 77f2 023f
000001a0: 83e5 45bd 936d 9e3e ef10 e8be aed5 c8be
000001b0: de92 67be 36dd bdbd 7bff dfbe 05e4 c7be
000001c0: 8358 de3e 7f0a 94be b3c5 e1bd 199d 2ebe
000001d0: c799 21be eb4e 3d3c 5264 bb3e c108 ac3e
000001e0: 422e d13e c866 53be b30d d2be 0a53 b23e
000001f0: ef2d 13be 3599 743e d5b6 2f3e 3c24 983e
00000200: 2cc3 89bd abe4 03be a6b8 c83e 9be3 903e
00000210: 7f19 573d 611d 89be 0a92 a9be b311 55be
00000220: e078 953e b2a7 633e 1821 1abe 460f 4d3d
00000230: 8307 ad3e 444e 1dbf a91e 3bbd 1cb1 33be
00000240: 37b2 11bd fb2b a43e 69ea 1dbf 9d9f adbd
00000250: 2964 bbbd 9bcd 0f3f
-0.72990966 -0.4146893 6.0886247e-05 -0.024729459 0.017249806 -0.32887354 -0.2778873 0.664199
0.16054451 0.13373065 0.61246324 0.006618294 -0.49248946 -0.41615778 0.3709042 0.13298069
0.04566691 0.41567644 0.24394278 -0.677376 0.40115684 -0.14555308 0.5877196 -0.12468185
0.2061717 -0.078823425 0.16044554 0.47763392 0.29475024 0.44219097 -0.46442822 -0.046844035
0.33301935 -0.17069818 -0.2817012 -0.45436227 0.16827042 -0.8270214 0.32551596 -0.06963977
0.2553673 0.19492032 0.15463969 0.29914376 -0.3395155 0.0052355337 -0.11509707 0.35722733
-0.20285794 0.18575326 0.5055128 -0.17173097 -0.32266027 -0.24467127 0.2899451 -0.47658432
-0.11189943 0.2551764 -0.21744643 0.17693253 0.19989723 0.006503552 0.16828941 0.24354683
0.1684365 -0.39766607 -0.2750927 -0.43177426 0.2899719 -0.20902196 -0.073731035 -0.031701252
0.017444966 0.17078993 0.50510263 0.17817932 -0.07580106 0.49822918 0.5225981 0.48537257
0.13889222 -0.3005708 -0.2673176 -0.09482822 -0.3401304 -0.04386282 0.43296698 0.4577656
-0.3145487 -0.51115227 -0.4818619 0.056103658 -0.12855747 0.3101409 -0.51668423 0.30534562
-0.053799707 0.9161769 -0.24437848 -0.2457678 0.5045108 -0.054724224 0.49315345 0.5115122
-0.048314583 0.30942973 -0.4532542 -0.39225525 -0.22614619 -0.09270708 -0.43749604 -0.39041153
0.43426904 -0.28914258 -0.11024036 -0.17052115 -0.15781318 0.01155446 0.36599976 0.3360043
0.40855604 -0.20644677 -0.41026077 0.3482898 -0.14372991 0.23886569 0.17159589 0.29715145
-0.06726679 -0.12880199 0.39203376 0.2829865 0.05251455 -0.26780227 -0.3311923 -0.20807533
0.29193783 0.2223194 -0.15051687 0.050063394 0.33794793 -0.6144755 -0.045683537 -0.1754803
-0.03557035 0.32064804 -0.61685807 -0.084777094 -0.091499634 0.56173104

bias f4 [10]
00000000: c396 16be f89b 383e 5023 d63d a426 2cbe
00000010: 9296 c83b 6ae2 ca3c 9bb3 cc3c a532 f83d
00000020: 1fc1 5d3e 0149 87be
-0.14705949 0.18028247 0.10455954 -0.16811615 0.006121465 0.024766166 0.024987986 0.12119035
0.21655701 -0.26422885

weight f4 [10, 1, 4, 5]
00000000: 4aa6 bc3c b7fb ca3b f25b df3e 1833 febe
00000010: 3961 51bd a4e9 0f3f ed4e d73e bbfe 22be
00000020: cd99 a4be 50e7 91be bb0a 39be 63e1 533e
00000030: 9e43 43be 0846 6f3e 1893 54be ba4a 853e
00000040: 037f c5be d69f dfbe 562e ed3e 0dad b6ba
00000050: 5593 133f 6401 8fbe c8e5 4cbe 5303 dd3e
00000060: 7bea 853e 21a6 9c3e b08e 97bd d7c7 a2bd
00000070: ac76 673d d089 823e 8dc4 6cbd 8f5e b13e
00000080: 3ecb 373e e4a9 0e3e 8b88 6bbe 0ee5 37bd
00000090: 06cc e7be d039 12bf dfd6 1abe 418e 12bf
000000a0: 26d6 43be 736c a93c 1a60 8f3e 9c76 683d
000000b0: 3b73 9cbe f019 1abe b052 993e bd9c ecbd
000000c0: 041f 833e 8746 debe 6325 923d cecb 57be
000000d0: 17a6 fcbc 90cf cd3d 73c0 28bf 1e93 1bbe
000000e0: f5f0 c83e df10 24be 0a10 0d3f 19ab 17bd
000000f0: e9fa 2d3e 2d1b f93e f89b c6be a340 1e3e
00000100: 0a29 a63e 2dc4 40be ed8a 6f3e 88ae 0b3e
00000110: b5c4 48be bcd6 513d d5bd 45bd 1bbd ecbe
00000120: 0646 ca3d 3bc7 8a3e 446b bcbe 411b 813d
00000130: fa98 fe3d 0496 a6be 95d2 dd3e d759 653e
00000140: 800a 87be 86a2 01bf a3d5 013f 7eb0 163f
00000150: 4b2b bb3e 3702 a53e 7631 aa3b 3148 26bf
00000160: fcc8 fb3d 6320 313e 7693 d83d 0383 313c
00000170: b285 c3be 68b5 8a3d 01c5 b53e 22b8 bfbe
00000180: 7952 8f3d e096 ccbe 7793 6e3e 9753 ba3e
00000190: 5546 963d 8b42 8bbd 2900 7a3e 5a97 333f
000001a0: 7ca4 2dbf f490 05bf b085 05bf 2645 a13e
000001b0: 28d7 e0be 87d8 9bbe 934c 12bd 4f95 b7bd
000001c0: 9d3f 91bc 7e8f 85be 13e7 0bbe e17e b9be
000001d0: ddd4 28bf 1bb7 d23e 36f9 ec3c e778 0cbf
000001e0: a84e 5b3e dd91 d9bd d5ec b93e 4c78 f43e
000001f0: b615 bb3e c9f9 b8bc ee7b f83e fcd5 083f
00000200: 0779 943e 0305 173f 95fd 923d cec0 0bbf
00000210: 4f50 e73e 70f0 e43e 0894 513f 3936 6dbe
00000220: 3a74 153f 2b3e 3e3f d6f9 d9be ecd8 a73e
00000230: 59da 9a3e fd9d d53e 2be3 26be 9096 4f3e
00000240: a259 0ebd c07f 9c3d 4153 2ebe 8ee2 723d
00000250: 8700 3d3e ca9b c2be a826 63bd b22c 48bf
00000260: c64c 03bf b40b 1d3f 0bb7 0f3f 9895 8f3e
00000270: f3de e7be 0c37 b0be fa5b fe3e 2977 bf3e
00000280: 0a40 17bf d591 2abe e121 2dbe 897e b0be
00000290: d020 77be 1aa8 4a3e 5b36 10be 20cd 923d
000002a0: fb4e 7c3e 1a95 0bbf 90c0 8a3d 4710 fd3e
000002b0: a1e9 61be 3017 f2bc 2829 533d fc76 febe
000002c0: 90b4 24bd ce7e be3e 6701 b73e a936 243e
000002d0: 18e6 02bf 34e2 f9be 5660 9e3d 400d aabe
000002e0: 0d1b f73e 20b6 35bd bbdc 483e e9b3 86bd
000002f0: 5baa 9bbe 343e d53e 149c 89be 79f4 053f
00000300: 54d4 04bf 93da ec3c 8b18 a0be 82fb 6dbe
00000310: eca0 d73e 5cea 3cbe 1047 573e fd8c 0e3f
0.023028512 0.0061945575 0.43624836 -0.49648356 -0.05111811 0.5621588 0.42052403 -0.15917484
-0.3214859 -0.2849679 -0.180705 0.20691447 -0.19068763 0.23366559 -0.20759237 0.26033574
-0.38573465 -0.43676633 0.46324414 -0.0013937071 0.57646686 -0.27930748 -0.2000953 0.431666
0.26155457 0.30595496 -0.07400262 -0.07948273 0.05650966 0.25495768 -0.057804633 0.34642455
0.17948624 0.13931996 -0.23001306 -0.044896178 -0.45272845 -0.57119465 -0.1512103 -0.5724831
-0.1912466 0.020681595 0.28003007 0.05675374 -0.30556664 -0.15048957 0.29945898 -0.11553333
0.256096 -0.43413183 0.07136037 -0.21073839 -0.030840917 0.10049355 -0.65918654 -0.1519284
0.39246336 -0.16022061 0.551026 -0.037028406 0.16990246 0.48653546 -0.3879087 0.15454344
0.32453185 -0.18824835 0.2339284 0.13640797 -0.19606288 0.051230177 -0.04827674 -0.46238026
0.09876637 0.27105126 -0.36800587 0.063040264 0.12431522 -0.32536328 0.43324724 0.22397552
-0.26375198 -0.50638616 0.5071661 0.58863056 0.36556467 0.32228252 0.0051938845 -0.64953905
0.12294194 0.17297511 0.10575001 0.010834458 -0.3818794 0.06772882 0.35501865 -0.3744517
0.06998152 -0.39958858 0.23298441 0.363919 0.073376335 -0.067998014 0.24414124 0.7015282
-0.6782911 -0.52174306 -0.52157116 0.3149807 -0.4391415 -0.30438635 -0.035717558 -0.08964025
-0.017730528 -0.26086038 -0.13662367 -0.36229613 -0.65949804 0.41155323 0.028927427 -0.5487198
0.21416724 -0.10623524 0.363135 0.4774803 0.36540002 -0.022580044 0.4853205 0.53451514
0.28998587 0.5899202 0.07177273 -0.5459107 0.45178458 0.4471469 0.818665 -0.23165216
0.5838047 0.7431361 -0.42573422 0.32782686 0.3024471 0.41722098 -0.16297595 0.20272279
-0.03475345 0.07641554 -0.17023946 0.05929809 0.18457232 -0.38009483 -0.055456787 -0.781932
-0.5128902 0.6134598 0.56138676 0.28043818 -0.45287284 -0.34416997 0.49679548 0.373956
-0.5908209 -0.16657193 -0.16907455 -0.3447154 -0.2413361 0.19790688 -0.14083235 0.07168031
0.24639504 -0.54524386 0.0677501 0.4942648 -0.22061779 -0.029552072 0.05155292 -0.49700153
-0.04021126 0.3720612 0.35743257 0.16036476 -0.51132345 -0.48805392 0.07733218 -0.33213234
0.48262826 -0.04436314 0.19615452 -0.06577284 -0.30403408 0.4164902 -0.2687689 0.5232616
-0.51886487 0.028912818 -0.31268725 -0.23240474 0.4211496 -0.18448776 0.21023202 0.5568388

bias f4 [10]
00000000: ee99 363e 1f11 1e3e 3abf 2e3e 6caa cc3d
00000010: dbb2 a5bd b6ea 2e3d adf9 bcbd dc88 d2bd
00000020: 3bb1 af3d c8b0 b1bc
0.17832157 0.15436219 0.17065135 0.09993443 -0.080907546 0.042704307 -0.092273094 -0.1028001
0.08578726 -0.021690741

weight f4 [10, 1, 5, 5]
00000000: 329b a53e b0d3 bebe e884 fb3e 1f63 d1be
00000010: 1046 483e 7cbc 2f3e ff59 f1be 45d4 86be
00000020: 5a70 28bd cf0f 08be ca30 0ebe ec32 d8be
00000030: 018f 25be 5655 17be 0a03 813c d857 17bd
00000040: e18a 843d 39fd 903d c47f c33d bd61 b3be
00000050: 1756 e3be 329f f4be c108 b23d e13b ccbe
00000060: dbc3 3abf e1e5 193d 253a d9bd 6cfa 07be
00000070: fab1 c5bd 253d 4f3f 9f5e b03d 52df 143e
00000080: eb32 bebe ee52 f9be 1dba 50be e182 a63e
00000090: 4609 a83e 35f0 bcbe c7d6 7f3e e8cd 483d
000000a0: a3ac b4bd a130 c2be 3926 abbe f251 bc3e
000000b0: 3f1f f83e f9f1 80be 9c1e be3e 49ef 873e
000000c0: 904e c5be 1d3c 863e 566e f03e 7372 1fbf
000000d0: 7dbb ef3d 4114 10bf 1bc9 063d 3a6d fe3e
000000e0: c6c8 8b3a d0db 2f3e a674 ef3d b451 0f3f
000000f0: bba7 0f3f a526 033f a9b0 c33e 8c63 68be
00000100: ccd8 8e3d 8e69 993d 574e bbbe 534b bc3d
00000110: df3a 1d3e 6472 c43e dfb8 3abd b3f8 afbe
00000120: dd03 d23e 7d4b d2bc 4249 5e3e 439b 9dbe
00000130: 8e38 993d 5bb6 5c3e 41b8 0d3f 5813 513e
00000140: a47f 913d 65b0 2d3e 963e 84be 60f2 cf3e
00000150: 2d03 a2bc f7cd 953e 6130 e2be e177 d23c
00000160: ed08 1b3e 428f c3be 3969 babe 1b59 15bf
00000170: 44d7 723e 3fc9 e13d 7c3a 6fbe 16f7 d1be
00000180: 4889 24be f51d b4bd 42e1 083e 51fe 70bd
00000190: a946 e9be 26de f0be ae03 cebe f5c5 e63d
000001a0: fa91 dfbe 9fd5 033f 1e25 a63e c629 663e
000001b0: ee68 f7be c98d 683e dc2e 773e 712d c1be
000001c0: 4634 a03e 5fd9 863e 4528 adbe ce68 61be
000001d0: 4c54 3cbd 8b4d 9b3e 92c2 f5bd fb7a 40be
000001e0: 5fc6 9f3e 47ec d53e ca66 63be 8628 013f
000001f0: 425d c13d dd3d 4abd 2bb9 ed3d aea2 f03e
00000200: 8eb1 85be c949 863e ca37 b33e f221 55be
00000210: d0d3 65be 4dd2 143e 29a1 0dbe 6078 4b3e
00000220: 4f76 9d3d ba00 eabe e9e9 953e b1d5 bebe
00000230: bf9c 25bf afcc 733e b5f2 0d3d 4a7f 48bf
00000240: 089b 1cbe 59b8 ab3e 860a cc3b c115 c03e
00000250: 6409 0abf 3424 96bd 32d5 25be f331 483e
00000260: 4fa8 3c3d cbd8 c4be 7ea1 423e 0f58 573e
00000270: a7a0 083f e133 893e cbbe 97be 111a dd3e
00000280: 3ac5 48bf e8a2 a93e bb17 c1be 29b7 cabe
00000290: afda 9ebe be32 b13e c9b9 47bf bc34 28bf
000002a0: 55e3 e23e 81d6 89bd 78f2 2cbf e3cf 203f
000002b0: d426 13be 6850 d3be f570 e1be 4b09 f5be
000002c0: 77ea 3f3e 1270 053e d58d 4bbe 9fee 3dbe
000002d0: 6bb4 d8bc 6c26 493f 112e edbe 7f2e 533f
000002e0: 8f6b 70bf 2b67 83be 6c68 dfbe 037b b73e
000002f0: 4266 7abe 8eb5 af3d f645 8e3c 8dd3 b23e
00000300: f4b6 433e 6959 03bf 97d7 8fbe 420b fbbd
00000310: 1464 efbe 7b32 0f3f 8772 75be 8cc3 a0be
00000320: fc53 9cbc 04fa bcbe 67da b03e 7503 20bf
00000330: 35af b7bd fc5b 9e3e 8828 983e 1fe6 0c3e
00000340: 7abc be3e 5146 bbbe cd4c 41bf 4c99 a53e
00000350: 228f c73e d6d4 b5be 2b03 a43d c38d 803d
00000360: 7b61 623e ccf7 61be 216c 1a3e 1e41 c5be
00000370: 8310 c03e 8492 b2be b447 fe3e ca08 3cbe
00000380: 337a 87be 794b 9f3e c326 e83e c6e5 dfbd
00000390: 5930 dabe 2778 803e 334a 49bd 988d 1a3e
000003a0: c584 683e 85d1 eb3e 29f1 a63e 25ac 023e
000003b0: 4e6e fc3e cf1d 2fbe 9a85 e03e 54e3 6dbe
000003c0: a454 a3bd b31a 8abe 0af5 af3e d423 923b
000003d0: eabc 643d 4c58 48bf af21 ff3e 311f e43e
000003e0: 1dda 6a3e 58fd 2bbe
0.32344967 -0.3727088 0.49124837 -0.40895936 0.19557977 0.17161745 -0.47138974 -0.26333824
-0.04112277 -0.1328728 -0.13885799 -0.4222635 -0.16167833 -0.14778647 0.01574852 -0.03694901
0.064718015 0.070795484 0.09545854 -0.35035506 -0.4440162 -0.47777706 0.08693076 -0.39889434
-0.729551 0.037572745 -0.10606793 -0.13279122 -0.09653087 0.80952674 0.086117975 0.14538315
-0.37148222 -0.48696083 -0.20383497 0.32521728 0.32819575 -0.36902013 0.24984275 0.049024493
-0.0882199 -0.37927726 -0.334276 0.3678127 0.4846134 -0.2518461 0.37132728 0.26549748
-0.385365 0.26217738 0.4695918 -0.6228401 0.117056824 -0.56280905 0.032906633 0.49692708
0.0010664694 0.17173696 0.11692171 0.55984044 0.5611531 0.5123084 0.38220719 -0.22694224
0.069749445 0.07490836 -0.36583206 0.091940545 0.15354489 0.38368523 -0.045586463 -0.3436943
0.41018572 -0.025670761 0.21707633 -0.30782518 0.0748149 0.21553938 0.55359274 0.20417535
0.07104424 0.1696182 -0.25829 0.40614605 -0.019776905 0.292587 -0.44177535 0.025691928
0.15140124 -0.38195235 -0.36408404 -0.5833909 0.2371493 0.11024713 -0.23362154 -0.41008824
-0.16067994 -0.08794776 0.13367179 -0.058836285 -0.45561722 -0.47044486 -0.40237182 0.11268226
-0.4366606 0.51497835 0.32450193 0.22476873 -0.48322242 0.22710337 0.24138969 -0.37729982
0.3128988 0.26337716 -0.33819786 -0.22012636 -0.04597883 0.30332598 -0.12000002 -0.18796913
0.31206033 0.41781828 -0.2220718 0.5045246 0.09441616 -0.049375404 0.116075836 0.46999115
-0.26112026 0.2622817 0.350035 -0.2081373 -0.22444081 0.14533348 -0.13831009 0.19870138
0.07688581 -0.4570368 0.29280022 -0.3727241 -0.646923 0.2380855 0.03465529 -0.7831923
-0.15293515 0.33539084 0.0062268404 0.37516597 -0.5392058 -0.07331124 -0.16194609 0.19550304
0.04605895 -0.3844665 0.19006917 0.21029685 0.53370136 0.26797393 -0.2963775 0.4318395
-0.78425944 0.331321 -0.37713417 -0.39592865 -0.31026217 0.34609026 -0.7801786 -0.65705466
0.44314066 -0.067303665 -0.6755748 0.6281721 -0.1437028 -0.41272283 -0.44031492 -0.47858652
0.18741785 0.13031033 -0.19878323 -0.18548058 -0.026453217 0.7857425 -0.46324208 0.8249282
-0.9391412 -0.25664648 -0.43634355 0.35836038 -0.24453071 0.08579551 0.017367344 0.34927025
0.1911276 -0.51308304 -0.2809417 -0.12258007 -0.4675604 0.559364 -0.2396947 -0.3139919
-0.019083016 -0.36909497 0.34541628 -0.62505275 -0.08968965 0.30929554 0.29718423 0.13759659
0.3725317 -0.36577085 -0.75507814 0.3234352 0.3897639 -0.35513943 0.08008417 0.06277039
0.22107498 -0.22067183 0.1508031 -0.38526243 0.37512597 -0.34877408 0.4966408 -0.18362728
-0.26460418 0.3111227 0.45342073 -0.10932498 -0.4261501 0.2509167 -0.049143028 0.15093076
0.22706898 0.46058288 0.32605866 0.1276098 0.49302906 -0.17101215 0.4385193 -0.2323125
-0.07975128 -0.26973495 0.34366637 0.0044598375 0.055844225 -0.7825973 0.49830386 0.44555047
0.22934766 -0.16795862

bias f4 [10]
00000000: 72ef 153d 891c 863d 18be 51be 16ba 66be
00000010: 4f05 dc3d 360a e9bd 402c 21bd c15d 55bc
00000020: 6f5c 49be 4a11 dcba
0.036605306 0.065484114 -0.20482671 -0.22531924 0.107432 -0.11378901 -0.03934884 -0.013022841
-0.19664167 -0.001678982

weight f4 [10, 1, 6, 5]
00000000: 3ecd 323f 873e 5c3e 83ba ea3e 94e0 39bb
00000010: 15aa 55bc ac65 083e 70a6 2fbe e7fc 253e
00000020: 6e91 98bc 3b75 113e e0fc 6cbe 8834 b93e
00000030: bc4c 87bc 5802 a5be ca7e e83e 84d8 063f
00000040: 04a6 93be 3236 5f3e 401a 1c3d 6491 5abe
00000050: 4edd 6cbe db07 c7bd 42e3 873c d7bc bb3e
00000060: 2d84 9a3d 7864 6e3e 2a59 3a3d 3cd1 6fbe
00000070: a538 65be bbf3 ed3e af14 043d f342 16be
00000080: 6b73 a3be e520 723d 4c2d 113e 788a 8b3e
00000090: 23ed 323e 8098 e1be 8c58 76bc 84d9 dfbe
000000a0: db27 523d 719d d43d 7f97 e53e 0058 0f3e
000000b0: cc88 0abe 4b54 97bd 89ab 54be 7ac2 0ebf
000000c0: 98c6 c2be ef57 f03c b12f 063f 59ab a63e
000000d0: 44a2 903d c2cb 1d3f 67a7 5a3e 7152 5cbe
000000e0: 4bdc cdbc 82de dc3d b0f0 f2be 626f 31be
000000f0: 0a15 953e 9d8a 55be 1c5c 52bc 17e8 a23e
00000100: d166 2d3e b1ab e8bd df82 32bd 7eaa 04bf
00000110: 93f4 813e e24d b1be 9845 2fbf c0de 98be
00000120: 38f9 063e b06e dbbe e407 6cbe 6f37 0f3e
00000130: 723c a43e 6376 b73e 337b 1abf ada6 993e
00000140: 7c71 3fbd 1af3 df3e b649 debe f065 823e
00000150: 6479 803e 80e6 e6be 483d dbbe bae8 9d3e
00000160: 1292 02bf e6b1 92be 174c bc3e 06de 94be
00000170: a560 983e 43cd 9d3d 532c f9be d11a a93e
00000180: a759 cfbe f494 023e cb3c 09ba edc5 743e
00000190: fe95 82bd 8885 9a3c 2f51 413e ea6c 37be
000001a0: 12b6 a83d 6f70 72bd 44b5 01bf fdf9 a9be
000001b0: 2a02 e1be 50b1 27be 2aa0 c8be 25a6 24bf
000001c0: b337 753d accd 383d 4009 b23e 6b1c 1e3f
000001d0: b643 c23e a130 933d 5e95 44be 8a29 bf3e
000001e0: fb28 f93d fbf4 3cbf 4399 513f 2407 73be
000001f0: 84fe 4d3d 22f4 55be feca d73e 1b66 90be
00000200: bb34 0bbe b8ae 06be 8840 d43c 5b07 cfbd
00000210: e757 b33d e135 65be a773 41be a9c2 433e
00000220: bf04 38be 42d2 deba 5d79 6abe dc6e ac3d
00000230: 3543 afbe dddd febe cd11 8ebe 9188 c3bc
00000240: 25de 583e d33c cf3e b0e5 c73e 0ff4 cfbe
00000250: 259d a1bc e740 b83e 1b79 cf3d 90f5 073e
00000260: c8ab d5be 5b69 873e b947 c43e 3753 d53e
00000270: c6ef 1b3f d771 0cbf e496 8ebe 53ee e63d
00000280: 7c4f 0abf 54ef d33e 8af8 0bbe c4c7 253d
00000290: bdbe d43e fa7d 35be 5b70 94be e5d2 dd3d
000002a0: 04a7 00bf 8246 ac3e a00f c53d 9d29 9b3d
000002b0: 6278 ab3e 5f28 9c3e 5efe a23e 0653 613e
000002c0: 9ff6 923d 007b 16be 551f 903d 06d8 24be
000002d0: 2011 493e f220 123e 0fa7 d2be c248 5a3e
000002e0: 1abc 03bf 68f4 91be 8379 afbe 9346 19bf
000002f0: c9ce 0cbf 9da2 3dbf b664 81be c067 6dbe
00000300: 63c1 1dbe 8544 d33e be7f ccbe 5aee cfbd
00000310: e49e ba3e 20ef 58bf d92b 383f 4310 883e
00000320: e3c5 b73d 1353 3f3d ea9c 9e3a 8854 25be
00000330: b917 d03e 06bf 2abe 9ba2 5b3b fc24 17be
00000340: 2da1 f2bd f9d7 36be 1e8d d13d 5034 99be
00000350: 1bf0 1b3e ebd3 393f 4600 8c3a 8c6e e7be
00000360: 143b 9dbe 5eb3 483c fc1d f93e 29ed a33d
00000370: d7c3 893d d665 fabc 14ae a23d 0ff0 043f
00000380: 920c 10bf 5f7a c93e 2ce9 21be 502f 86be
00000390: 9abe 803e c367 0ebd aaf0 9cbe 8437 5cbe
000003a0: 8e14 a53e 6a96 20be ceaa 66bd f04f 89be
000003b0: 0214 3a3e c225 5bbe 832e 3c3d 9250 16be
000003c0: 6dde 373e 1eae 04ba 7152 1d3e 9cae 063f
000003d0: 69ad 7dbd 8166 65be 4989 553e bfb0 b33e
000003e0: b329 1cbf 3521 493d 5bb4 0bbd b0b6 c3bc
000003f0: af3e 6639 f9ad 443f 6f70 60be bc75 f43d
0.69844425 0.21508227 0.45845422 -0.0028362619 -0.013041039 0.13320035 -0.17153335 0.16209756
-0.018624034 0.14204876 -0.23143339 0.3617289 -0.016516082 -0.3222835 0.45409232 0.52674127
-0.28837597 0.21798018 0.03811097 -0.21344525 -0.23131296 -0.09718295 0.016587857 0.3666751
0.07544742 0.23280513 0.04549519 -0.2341966 -0.2238489 0.46475014 0.032246288 -0.14673977
-0.31923994 0.059113402 0.14177436 0.2725408 0.17473273 -0.4406166 -0.01503576 -0.4372064
0.05130754 0.10381592 0.44842145 0.13998413 -0.13528746 -0.073891245 -0.2076856 -0.557655
-0.3804214 0.029338805 0.5241652 0.32552603 0.070622 0.61639035 0.21352921 -0.21515824
-0.025129458 0.107846275 -0.47449255 -0.17327645 0.29117614 -0.20853658 -0.012839343 0.31817695
0.16933753 -0.113608725 -0.04358184 -0.5182265 0.25381908 -0.34629732 -0.68465567 -0.29857445
0.13181007 -0.42857885 -0.23049885 0.1398599 0.32077366 0.3583251 -0.6034424 0.30009976
-0.046739087 0.4374016 -0.43415612 0.25468397 0.25092614 -0.45097733 -0.4282019 0.3084162
-0.51004136 -0.2865135 0.36776802 -0.2907564 0.29761234 0.07705166 -0.4866663 0.33028272
-0.40498087 0.12752134 -0.0005235194 0.23903628 -0.06376265 0.0188625 0.18878625 -0.17912641
0.08237852 -0.059189256 -0.50667214 -0.33198538 -0.43946964 -0.16376233 -0.39184695 -0.64316016
0.059867572 0.04511802 0.34772682 0.6176211 0.37942284 0.071870096 -0.19197604 0.3733638
0.121660195 -0.7381131 0.81874484 -0.23733193 0.050291553 -0.2089391 0.42147058 -0.282029
-0.13594334 -0.13152587 0.025909677 -0.10108825 0.087570004 -0.22383834 -0.18891774 0.19117226
-0.1797056 -0.0016999918 -0.22897859 0.08419582 -0.34230962 -0.49778643 -0.27747956 -0.02386883
0.21178491 0.40476093 0.39042425 -0.4061589 -0.019728253 0.35987017 0.10130521 0.13277268
-0.4173262 0.26447567 0.3833597 0.4166505 0.6091274 -0.54861206 -0.27849495 0.112759255
-0.54027534 0.4139353 -0.13669029 0.040473714 0.41551772 -0.17723837 -0.2899197 0.108312406
-0.50254846 0.33647543 0.09622121 0.075762965 0.33490282 0.3049955 0.31834692 0.22004327
0.071759455 -0.14695358 0.07037226 -0.16098031 0.19635439 0.1427038 -0.4114308 0.21316817
-0.51458895 -0.2850678 -0.34272394 -0.5987331 -0.5500303 -0.74076253 -0.2527215 -0.23184109
-0.15405802 0.41263214 -0.3994121 -0.10152884 0.3644935 -0.84739876 0.71941906 0.26574907
0.08973291 0.046710085 0.0012101207 -0.16145527 0.406431 -0.16674432 0.0033513668 -0.14760202
-0.11847148 -0.17855825 0.10231994 -0.29922724 0.15228312 0.72588986 0.0010681234 -0.45201528
-0.30709136 0.012249796 0.4865569 0.08004219 0.067268066 -0.030566137 0.07943359 0.519288
-0.5626918 0.39351174 -0.15811604 -0.26207972 0.25145417 -0.034766924 -0.30652362 -0.21505553
0.32242244 -0.15682378 -0.056315236 -0.268188 0.18171695 -0.21401122 0.045942795 -0.14679173
0.17955942 -0.0005061346 0.1536348 0.5261018 -0.061932955 -0.22402383 0.20853151 0.35095784
-0.6100113 0.049103934 -0.034107547 -0.023890823 0.00021957861 0.7682796 -0.2191789 0.119365185

bias f4 [10]
00000000: d6a6 173d 6fe6 29be e5a0 8c3d 1993 7cbb
00000010: 2571 203d 60e9 2ebe 334c 173d e337 373e
00000020: 985d 1c3e b199 94bd
0.03702434 -0.1659181 0.06866626 -0.0038539825 0.039170403 -0.17081213 0.036937904 0.17892413
0.15270078 -0.07255877

weight f4 [891, 5]
00000000: b9d1 46bf 044c 853e fc74 ee3f a694 193f
00000010: cad7 0840 0583 1fbf ab1a 933d faef 833e
00000020: 28fa eebe dba5 f7bf 4ed9 bfbd 2976 7f3f
00000030: c1ac 1b40 d342 6dbf 6e61 6e3f bb33 62bf
00000040: fcd2 c3be e6f2 833e fe73 3dbf dc71 fbbf
00000050: d216 813c b553 afbe c865 1cbf d0c5 cc3f
00000060: 0c74 d43e 7ffe 7cbb d0a4 1cbe b1a1 ff3e
00000070: f730 13be 6204 543f fa05 463f 6050 d3bc
00000080: 176b 73bf 0092 3a3e 45c3 6c3f b0dd a83e
00000090: 4d42 10c0 11da a0bf dd36 893d 1440 fd3f
000000a0: 9017 bdbe baac 34c0 caf8 bdbf 022b 423f
000000b0: 9eeb ff3f 7d14 c8bf 406e b2bd c78d 793f
000000c0: 7ad3 2d3e 6617 9cbe 46ee 1140 b915 173f
000000d0: c080 8abf 8f01 ec3f 40c2 72bf 0054 fcbf
000000e0: e9de c7be a9cd a63e b5dd b6bd 70f3 c6bf
000000f0: 51e7 d0be 56d3 4cbf 2bbe 7d3f 6d5e c5be
00000100: 6df2 1dbf 7e61 00bf 964b c6bf 79e3 893f
00000110: 1391 45bf 9ade c5bf de68 e7bf 4632 b4be
00000120: b95e 47bf c4f6 8cbf fad5 60be ca64 d33f
00000130: 239d b13f 3e96 853f 8e26 1abf 13f7 c6be
00000140: 059c 523f 04da 89bf d8c8 bf3f 200e a43f
00000150: 25e8 9ebf b8fe 8f3f 717e d0bd 3222 a73f
00000160: 1ca1 e7bc 05f7 d9be a7f0 a4bd fb4c a6be
00000170: 222f 1ebd 020b 4e3f feb0 f2be 746b bc3e
00000180: f46d c13d bfcd c23f 1b67 3abf 4f5f 3f3f
00000190: 8ba5 d7be c459 3a3d a0cd cbbf 4a01 0040
000001a0: c5ca 8ebf b0fe 603f d370 1d3f 451c a53e
000001b0: 0d0e a53f 7d7d 3dbf 71b8 3dbf a471 fd3f
000001c0: b9cc 043e b2d1 673f e886 96bd ae7f c93f
000001d0: bf2c 1240 90db 1e3e 027f 3a3f 9e82 94bf
000001e0: 6e19 533f 207f 9f3e 67d4 27bd 2874 b13f
000001f0: 10e5 c93e 4e2b a03e 914d d43f b221 93be
00000200: 18ed b23e 9fe4 a83f b840 08bd 8e72 9fbe
00000210: 2dc0 db3f 98bd 733f 7865 16be d862 5fbf
00000220: df54 c63e d466 18be 7287 013f 3031 14bf
00000230: bcdb 4bbf e2cb 8fbf 6b99 94be 6f2e 203e
00000240: 1902 853f 6219 2e40 aa48 41bf 48a0 a03f
00000250: 5f09 4f3e 1f1b a63f cb74 4bbf 52a4 eb3f
00000260: 9801 59bf f9aa e23e 57cd ad3f f43e 953f
00000270: 0656 09bf d15e c63f f1c1 ec3e 3ced 75bf
00000280: 2d9e 613e dcf3 9b3e 26f7 3fbf 1f98 1340
00000290: 895b 7ebf a68d 30be 2299 4dbf d6bb 0fbf
000002a0: d8c5 673c f759 2d3f 9aae a4bf b94e 353e
000002b0: 9286 1c3f c95b 2f40 1dd8 e2be d18a 403e
000002c0: c75a 6a3f 1675 343f 2ac0 27bf 98fd d23f
000002d0: 3e6c afbf fe62 a5bd 744f 37bf 894a 91bd
000002e0: 6b1b e6be 51fe c33f e332 dc3d f3a3 6e3e
000002f0: 5435 723e 2250 54be a594 563f 9dcc a13f
00000300: 021b 84bf 4b02 47bf f80d 82bf 69a2 b1bf
00000310: 4697 fc3f a4f4 54bf 1fa9 8bbf 10a3 813e
00000320: a1df 84bf f1b7 1b3f 096e b53e 8444 963f
00000330: ad1f c7bf f183 613f 9d75 e23f e7fc df3f
00000340: 7785 3abf e122 a33f fa51 c6bf 194c e03f
00000350: ca1a 813e 0099 69be a973 9c3f 9e93 08bf
00000360: ee88 48bf ee56 413f 13ec 423f e4f1 5f3d
00000370: e8cd f5bf 34d0 a03e afc1 1cbe b799 0bbf
00000380: cbb8 86bf b441 243f 49eb 4e3e 5262 f1bf
00000390: 07a2 60bf f566 53be 99e4 0f3f bdfb a0bf
000003a0: e596 823f 7bdc 68bf 3faa 7c3f 82ba c9be
000003b0: 5bda dc3e 2889 a13f 8e73 04c0 45f7 363f
000003c0: 419d ed3f 2ed0 f7bf 58ce 47bf 0300 653e
000003d0: 647c 0fbf e9bf 7f3f 11fa 8a3e b1c5 653f
000003e0: 37bf ea3f 2350 2cbf 9d88 94bf e98d 09c0
000003f0: 6688 b5bf 03d3 21bf bd32 9dbf 4fb4 e5bf
-0.7766376 0.26034558 1.8629451 0.59992445 2.1381707 -0.62309295 0.07182821 0.25769025
-0.4667523 -1.934749 -0.093676195 0.99789673 2.432419 -0.9268009 0.93117416 -0.88360184
-0.38246906 0.25771254 -0.74005115 -1.9644122 0.015757952 -0.3424355 -0.61092806 1.5997868
0.41494787 -0.003860384 -0.15297246 0.49928048 -0.14374147 0.8281919 0.7735287 -0.025795162
-0.9508528 0.18219757 0.9248546 0.32981634 -2.2540467 -1.2566549 0.066999175 1.978518
-0.3693204 -2.8230424 -1.4841549 0.75846875 1.999378 -1.5631253 -0.08712435 0.9748196
0.16975203 -0.30486602 2.280168 0.5901752 -1.0820541 1.8437976 -0.9482765 -1.9713135
-0.39037254 0.3257878 -0.08929006 -1.5543041 -0.4080148 -0.80009973 0.991183 -0.38548604
-0.6169804 -0.5014876 -1.5491817 1.0772544 -0.7717449 -1.5458558 -1.8078878 -0.35194606
-0.7787891 -1.1012807 -0.21956626 1.6515133 1.3876079 1.0436475 -0.6021508 -0.38860378
0.82269317 -1.0769658 1.4983168 1.2816811 -1.2414595 1.1249609 -0.10180367 1.305731
-0.028275065 -0.42571273 -0.08053713 -0.32480606 -0.038619168 0.80485547 -0.4740066 0.3680073
0.094448 1.5219039 -0.72813576 0.74754804 -0.42118487 0.045495763 -1.5922127 2.0000787
-1.115563 0.8788862 0.6150028 0.3224813 1.2894913 -0.74019605 -0.7410956 1.9800305
0.1296872 0.90554345 -0.0734995 1.574209 2.283981 0.15513444 0.7285005 -1.1602361
0.8246068 0.31151676 -0.040974047 1.3863573 0.39432573 0.3128304 1.6586171 -0.28736645
0.34946513 1.319477 -0.033264846 -0.31142086 1.7168022 0.9521117 -0.14687145 -0.872602
0.38736627 -0.14882976 0.505973 -0.57887554 -0.79632163 -1.1234095 -0.290233 0.15642713
1.0391265 2.7202992 -0.755015 1.2548914 0.20218419 1.2977027 -0.79475087 1.8409522
-0.84768057 0.44271067 1.357829 1.1659837 -0.53646886 1.5497686 0.46241716 -0.96065116
0.22032996 0.30459487 -0.74986494 2.3061597 -0.9935842 -0.17241535 -0.8031179 -0.5614599
0.014146291 0.677154 -1.2865784 0.17705812 0.6114284 2.7399771 -0.44305506 0.18802954
0.91544765 0.7049116 -0.65527594 1.6483641 -1.3704908 -0.08075522 -0.7160561 -0.070942946
-0.44942793 1.5311986 0.10751893 0.23304729 0.23653156 -0.20733693 0.83820564 1.2640568
-1.0320742 -0.77737874 -1.0160513 -1.3877689 1.9733665 -0.8318579 -1.0910987 0.2531972
-1.0380746 0.6082755 0.35435513 1.1739659 -1.5556542 0.8809195 1.7692143 1.7499055
-0.728599 1.2745019 -1.5493767 1.7523223 0.2521575 -0.22812271 1.2222797 -0.53350246
-0.7833394 0.7552327 0.7614147 0.054674044 -1.9203463 0.31408846 -0.1530826 -0.54531425
-1.0525144 0.64162755 0.20206942 -1.885813 -0.87747234 -0.20644744 0.5620819 -1.2576824
1.0202299 -0.90961426 0.98697275 -0.39400107 0.43135342 1.2619982 -2.069553 0.71471053
1.8563615 -1.9360406 -0.7804923 0.22363286 -0.5604918 0.99902207 0.2714391 0.8975478
1.8339604 -0.6730978 -1.1604191 -2.1492865 -1.418225 -0.63212603 -1.2281109 -1.7945651

weight f4 [10, 50]
00000000: 8c49 193e 79bd 94be 9861 8dbd a1b6 35bd
00000010: fe18 52bd 44ed e5bb 2116 41bd 5431 173d
00000020: fa03 463e 30bf 433e 8633 0bbe 700a 033e
00000030: 8cc2 593e dc7f 5d3c 162a 37be 65fb c13d
00000040: 7cda acbd 1163 cdbd c94f 6ebe 2127 77be
00000050: 324c 6f3d fd30 58be 1597 61be f6a0 e73c
00000060: 50bf 953e 6316 17bf ebea 953e 9830 76be
00000070: e807 923e e447 9fbc 3a48 44bf e0dd b03e
00000080: 28c2 fabc 242d 013e 5b8b c23c c963 96be
00000090: d80a ff3e a8c0 b6be 332d 00be 402f 1abe
000000a0: ff52 b03c f351 523e c95b cbbe f69b 17bf
000000b0: fbec 3bbe f507 8f3e 4cf1 af3d a8c8 9e3d
000000c0: 85a3 4a3e 8b3d 8fbb d158 5cbe 75e7 033e
000000d0: b919 ce3d 4309 8e3e ebca cd3d 685f e33c
000000e0: 537a 0bbd a1a3 d1bc b149 333e e923 cabd
000000f0: 552b c0be 0d05 9b3c b1ac 8cbe 9040 40bc
00000100: c911 ac3c 3984 37be 08ba 633e b286 b1be
00000110: fc00 2a3e d0cb 6fbe 0082 d7bd 8946 0b3e
00000120: 722e a23d b029 f33c 747f 2cbf 793d 40be
00000130: c756 4c3e 581b 9ebe 313f 613e 4244 7ebe
00000140: 6179 ac3e f850 20be b8a1 8fbe c075 b7be
00000150: 9758 c43e 244b a63e f3e3 b63e 2f34 0fbd
00000160: e610 18bf c83e ffbd 1485 b83e 777a d13d
00000170: 1ba7 9a3e 0103 983d fbbf 9b3e 1d0f 2fbf
00000180: da19 a4be fcf7 6abd 70b3 0e3d 1d2a 7ebd
00000190: 8146 483e e7ae 803e 2700 0abe aefc 1abe
000001a0: b2ff 103e 6cc3 40be 1b75 40bf 0956 b33e
000001b0: f231 f8bd c64e 473e ec50 093e 3354 d93c
000001c0: c410 31be 55f2 8fbe db10 2f3e a08b 2b3e
000001d0: d4d4 97bd cd1c 933d 5463 ca3d d3b3 62be
000001e0: 79d6 5b3d ec98 9cbe a00a ddbe d0e7 afbd
000001f0: 4035 733e 73f4 933d 7b14 7a3e 771e af3d
00000200: 4e19 62be 10a5 5fbd 58b5 b63e f0b1 4dbe
00000210: 1819 ae3e c385 e2be e839 b7be e863 923e
00000220: 3936 b73e e894 efbe 7df3 383e ba7a b03e
00000230: 2ef8 95be 64c3 fe3c b50d 153f 4da4 3fbb
00000240: 683e d8be ddbc 073f 576e 61bf 6325 dfbe
00000250: 630c ddbd 365a f8bd 1949 02bd 3acf 7cbe
00000260: dbd3 d83e 6def 1fbe c192 373e 0c3f 0a3d
00000270: b771 4dbe 3a1a df3d f630 9cbe 1dae f5bb
00000280: 5634 263e d198 913b 9530 283d 2d15 733d
00000290: 9b19 67be f7ff dcbd b47e 923e 14aa 08be
000002a0: f36f 13be 54bd 9b3e 6ffd 5fbe 4050 463e
000002b0: 7ecc c9ba 1a99 7cbe cebe 423e a796 233e
000002c0: cf1b 54bd 2aeb 18bc d23d 8ebe 5e01 c13d
000002d0: 7070 a83e 17e8 8abc 74ac 7e3c 1095 343e
000002e0: 5e23 bf3e 2f23 50be 26f0 fbbd dea6 cb3e
000002f0: a755 e63e 2c5a 00bf a9ab c9be 0584 28bf
00000300: 316f 1dbd 49f8 213e 6fe4 f5be 5ef4 09bd
00000310: e982 57bf e482 2f3e e8e2 a5be 9e5a a53d
00000320: b861 453d 4d6d 54be 9124 d1bc a0b1 82be
00000330: a432 fc3e ba6e 6cbd 156e 95bd b8bb 9a3e
00000340: f4d6 353a 373c 693d 6fca d8bd 9617 b33d
00000350: 0ea0 c2be 41c7 32bd 5df2 0b3e 7b5b e63d
00000360: c56f 6f3e 4641 81be 3579 353e 3868 663e
00000370: 455a c23e f040 5b3d 319b ff3d d1ea 8e3e
00000380: bac9 b53c b589 16be 8d15 693e 471a 8a3d
00000390: 19c8 69be 487e fa3d 9a4b a0be b93a 8f3e
000003a0: db30 51be 910e d7bd 07fd f4bd c816 eebe
000003b0: bfe4 31bf b1aa db3e abc9 4abe 7627 0e3f
000003c0: 0e7a 673d 639d 15bf 5def 33bf 826b 8ebc
000003d0: 8529 d03e bf63 41be ee39 9e3d 7b6d 6b3e
000003e0: 93f7 acbe e4ab ebbe 68be bbbd 35b9 b13d
000003f0: ff23 993e c5f5 113e ca1b 2ebe 3fc5 f53b
0.14969462 -0.29050806 -0.0690338 -0.04436362 -0.051293366 -0.0070168097 -0.047140244 0.036912277
0.19337454 0.19115901 -0.13593873 0.1279695 0.2126562 0.013519254 -0.17887148 0.09471778
-0.0844011 -0.10028661 -0.23272623 -0.2413602 0.058422275 -0.21112438 -0.2203029 0.028274994
0.29247522 -0.59018534 0.2928079 -0.24041975 0.28521657 -0.01944346 -0.7667271 0.34544277
-0.030610159 0.12614876 0.02374809 -0.29373005 0.4981296 -0.3569386 -0.12517242 -0.15057087
0.02152395 0.20539074 -0.39718464 -0.5922235 -0.1835212 0.27935758 0.085909456 0.07753116
0.1978894 -0.00437135 -0.21518256 0.12881263 0.100635 0.2774144 0.10048469 0.027755454
-0.034052204 -0.02559072 0.1750858 -0.098701306 -0.3753306 0.018923307 -0.27475503 -0.011734143
0.021004574 -0.17921533 0.22238934 -0.34673077 0.16601938 -0.23417592 -0.105228424 0.13601126
0.07919015 0.029682964 -0.6738198 -0.1877345 0.19954978 -0.30880237 0.21996762 -0.24830726
0.33686355 -0.15655887 -0.2805307 -0.35832024 0.3834884 0.32479203 0.35720786 -0.034961876
-0.59400785 -0.124631464 0.3603903 0.102284364 0.30205616 0.07422448 0.30419907 -0.68382436
-0.32050973 -0.057365403 0.034839094 -0.06205188 0.19558145 0.2513344 -0.1347662 -0.15135452
0.1416004 -0.18824548 -0.7517869 0.35026577 -0.12118901 0.19463643 0.13409775 0.026529407
-0.17291552 -0.28114572 0.17096274 0.16752481 -0.074136406 0.07183228 0.098822266 -0.2213891
0.053671334 -0.3058542 -0.4317217 -0.085891366 0.23750782 0.07224359 0.24421875 0.085507326
-0.22079965 -0.054600775 0.3568523 -0.20087409 0.3400352 -0.44242677 -0.35786366 0.28591847
0.35783556 -0.46793294 0.18061633 0.34468633 -0.2929091 0.031099029 0.5822404 -0.0029242218
-0.42235112 0.5302256 -0.8805899 -0.4358321 -0.10793378 -0.12126581 -0.031807993 -0.24688426
0.42349133 -0.15618677 0.17927076 0.033751532 -0.2006291 0.10893674 -0.30506104 -0.0074975626
0.16230902 0.004443266 0.041061956 0.059346367 -0.22568361 -0.10791009 0.28612292 -0.1334613
-0.14398174 0.30417883 -0.21874021 0.1936655 -0.0015396026 -0.24667779 0.19018099 0.15975438
-0.051784333 -0.009333411 -0.2778154 0.09424089 0.32898283 -0.016956372 0.015544046 0.17634988
0.3733167 -0.20325921 -0.12301664 0.39775747 0.44987223 -0.5013759 -0.3938878 -0.65826446
-0.03843612 0.1581737 -0.48025844 -0.033680312 -0.8418413 0.17139775 -0.32399678 0.080739245
0.048188895 -0.2074482 -0.025530132 -0.25526142 0.49257386 -0.057722785 -0.07296387 0.30221343
0.00069366326 0.05694219 -0.10585486 0.08744733 -0.38012737 -0.043647055 0.13666673 0.11247917
0.2338248 -0.25245112 0.17722018 0.22500694 0.37959495 0.053528726 0.12480772 0.27913526
0.022190917 -0.14700969 0.22762127 0.06743293 -0.22830237 0.122311175 -0.3130768 0.2797449
-0.20428793 -0.10500825 -0.11962324 -0.46501756 -0.69489664 0.42903665 -0.19803493 0.5552896
0.056512885 -0.5844328 -0.70287114 -0.017385248 0.40656677 -0.18885706 0.07725893 0.22990982
-0.33782634 -0.4602958 -0.091671765 0.086779036 0.29910275 0.1425391 -0.17002788 0.00750032

bias f4 [10]
00000000: a4b0 a03c 6023 41bc 0b7e 48bd 3ed7 c3bd
00000010: ff79 603b 599e fcbc 7038 dcbd 3754 9abd
00000020: 4a2d 2e3d ec5b d8bd
0.019615479 -0.011788219 -0.04894833 -0.095625386 0.0034252403 -0.030837225 -0.10752952 -0.07535594
0.04252366 -0.10564408
